…
ta":{"colab":{"base_uri":"https://localhost:8080/"},"executionInfo":{"elapsed":369,"status":"ok","timestamp":1690640339031,"user":{"displayName":"Deepika","userId":"06545443370312445244"},"user_tz":-330},"id":"7aJZyq2Ltdno","outputId":"c9b1caae-f47d-4871-b357-f2fce8d0e77b"},"outputs":[{"output_type":"stream","name":"stdout","text":["Model: \"sequential\"\n","_________________________________________________________________\n"," Layer (type)                Output Shape              Param #   \n","=================================================================\n"," conv2d (Conv2D)             (None, 254, 254, 32)      896       \n","                                                                 \n"," batch_normalization (BatchN  (None, 254, 254, 32)     128       \n"," ormalization)                                                   \n","                                                                 \n"," max_pooling2d (MaxPooling2D  (None, 127, 127, 32)     0         \n"," )                                                               \n","                                                                 \n"," conv2d_1 (Conv2D)           (None, 125, 125, 64)      18496     \n","                                                                 \n"," batch_normalization_1 (Batc  (None, 125, 125, 64)     256       \n"," hNormalization)                                                 \n","                                                                 \n"," max_pooling2d_1 (MaxPooling  (None, 62, 62, 64)       0         \n"," 2D)                                                             \n","                                                                 \n"," conv2d_2 (Conv2D)           (None, 60, 60, 128)       73856     \n","                                                                 \n"," batch_normalization_2 (Batc  (None, 60, 60, 128)      512       \n"," hNormalization)                                                 \n","                                                                 \n"," max_pooling2d_2 (MaxPooling  (None, 30, 30, 128)      0         \n"," 2D)                                                             \n","                                                                 \n"," flatten (Flatten)           (None, 115200)            0         \n","                                                                 \n"," dense (Dense)               (None, 128)               14745728  \n","                                                                 \n"," dropout (Dropout)           (None, 128)               0         \n","                                                                 \n"," dense_1 (Dense)             (None, 64)                8256      \n","                                                                 \n"," dropout_1 (Dropout)         (None, 64)                0         \n","                                                                 \n"," dense_2 (Dense)             (None, 1)                 65        \n","                                                                 \n","=================================================================\n","Total params: 14,848,193\n","Trainable params: 14,847,745\n","Non-trainable params: 448\n","_________________________________________________________________\n"]}],"source":["model.summary()"]},{"cell_type":"code","execution_count":28,"metadata":{
…
